7767517
246 294
Input                    input                    0 1 input
Convolution              Conv_0                   1 1 input 387 0=32 1=3 3=2 4=1 5=1 6=864 9=6 -23310=2,1.666667e-01,5.000000e-01
ConvolutionDepthWise     Conv_3                   1 1 387 390 0=32 1=3 4=1 5=1 6=288 7=32 9=1
Split                    splitncnn_0              1 3 390 390_splitncnn_0 390_splitncnn_1 390_splitncnn_2
Pooling                  AveragePool_7            1 1 390_splitncnn_2 393 0=1 1=96 11=1 2=96 12=1 5=1
Pooling                  AveragePool_8            1 1 390_splitncnn_1 394 0=1 1=1 11=128 12=128 5=1
Permute                  Transpose_9              1 1 394 395 0=1
Concat                   Concat_10                2 1 393 395 396 0=1
Convolution              Conv_11                  1 1 396 400 0=8 1=1 5=1 6=256 9=6 -23310=2,1.666667e-01,5.000000e-01
Split                    splitncnn_1              1 2 400 400_splitncnn_0 400_splitncnn_1
Crop                     Slice_20                 1 1 400_splitncnn_1 407 -23309=1,0 -23310=1,128 -23311=1,1
Crop                     Slice_22                 1 1 400_splitncnn_0 409 -23309=1,128 -23310=1,224 -23311=1,1
Permute                  Transpose_23             1 1 409 410 0=1
Convolution              Conv_24                  1 1 407 412 0=32 1=1 5=1 6=256 9=4
Convolution              Conv_26                  1 1 410 414 0=32 1=1 5=1 6=256 9=4
BinaryOp                 Mul_28                   2 1 390_splitncnn_0 414 415 0=2
BinaryOp                 Mul_29                   2 1 415 412 416 0=2
Convolution              Conv_30                  1 1 416 883 0=16 1=1 5=1 6=512
Convolution              Conv_31                  1 1 883 421 0=96 1=1 5=1 6=1536 9=1
ConvolutionDepthWise     Conv_33                  1 1 421 424 0=96 1=3 3=2 4=1 5=1 6=864 7=96 9=1
Split                    splitncnn_2              1 3 424 424_splitncnn_0 424_splitncnn_1 424_splitncnn_2
Pooling                  AveragePool_37           1 1 424_splitncnn_2 427 0=1 1=48 11=1 2=48 12=1 5=1
Pooling                  AveragePool_38           1 1 424_splitncnn_1 428 0=1 1=1 11=64 12=64 5=1
Permute                  Transpose_39             1 1 428 429 0=1
Concat                   Concat_40                2 1 427 429 430 0=1
Convolution              Conv_41                  1 1 430 434 0=8 1=1 5=1 6=768 9=6 -23310=2,1.666667e-01,5.000000e-01
Split                    splitncnn_3              1 2 434 434_splitncnn_0 434_splitncnn_1
Crop                     Slice_50                 1 1 434_splitncnn_1 441 -23309=1,0 -23310=1,64 -23311=1,1
Crop                     Slice_52                 1 1 434_splitncnn_0 443 -23309=1,64 -23310=1,112 -23311=1,1
Permute                  Transpose_53             1 1 443 444 0=1
Convolution              Conv_54                  1 1 441 446 0=96 1=1 5=1 6=768 9=4
Convolution              Conv_56                  1 1 444 448 0=96 1=1 5=1 6=768 9=4
BinaryOp                 Mul_58                   2 1 424_splitncnn_0 448 449 0=2
BinaryOp                 Mul_59                   2 1 449 446 450 0=2
Convolution              Conv_60                  1 1 450 895 0=24 1=1 5=1 6=2304
Split                    splitncnn_4              1 2 895 895_splitncnn_0 895_splitncnn_1
Convolution              Conv_61                  1 1 895_splitncnn_1 456 0=144 1=1 5=1 6=3456 9=6 -23310=2,1.666667e-01,5.000000e-01
ConvolutionDepthWise     Conv_64                  1 1 456 460 0=144 1=3 4=1 5=1 6=1296 7=144 9=6 -23310=2,1.666667e-01,5.000000e-01
Split                    splitncnn_5              1 3 460 460_splitncnn_0 460_splitncnn_1 460_splitncnn_2
Pooling                  AveragePool_69           1 1 460_splitncnn_2 463 0=1 1=48 11=1 2=48 12=1 5=1
Pooling                  AveragePool_70           1 1 460_splitncnn_1 464 0=1 1=1 11=64 12=64 5=1
Permute                  Transpose_71             1 1 464 465 0=1
Concat                   Concat_72                2 1 463 465 466 0=1
Convolution              Conv_73                  1 1 466 470 0=16 1=1 5=1 6=2304 9=6 -23310=2,1.666667e-01,5.000000e-01
Split                    splitncnn_6              1 2 470 470_splitncnn_0 470_splitncnn_1
Crop                     Slice_82                 1 1 470_splitncnn_1 477 -23309=1,0 -23310=1,64 -23311=1,1
Crop                     Slice_84                 1 1 470_splitncnn_0 479 -23309=1,64 -23310=1,112 -23311=1,1
Permute                  Transpose_85             1 1 479 480 0=1
Convolution              Conv_86                  1 1 477 482 0=144 1=1 5=1 6=2304 9=4
Convolution              Conv_88                  1 1 480 484 0=144 1=1 5=1 6=2304 9=4
BinaryOp                 Mul_90                   2 1 460_splitncnn_0 484 485 0=2
BinaryOp                 Mul_91                   2 1 485 482 486 0=2
Convolution              Conv_92                  1 1 486 907 0=24 1=1 5=1 6=3456
BinaryOp                 Add_93                   2 1 907 895_splitncnn_0 489
Convolution              Conv_94                  1 1 489 493 0=144 1=1 5=1 6=3456 9=6 -23310=2,1.666667e-01,5.000000e-01
ConvolutionDepthWise     Conv_97                  1 1 493 497 0=144 1=3 3=2 4=1 5=1 6=1296 7=144 9=6 -23310=2,1.666667e-01,5.000000e-01
Split                    splitncnn_7              1 3 497 497_splitncnn_0 497_splitncnn_1 497_splitncnn_2
Pooling                  AveragePool_102          1 1 497_splitncnn_2 500 0=1 1=24 11=1 2=24 12=1 5=1
Pooling                  AveragePool_103          1 1 497_splitncnn_1 501 0=1 1=1 11=32 12=32 5=1
Permute                  Transpose_104            1 1 501 502 0=1
Concat                   Concat_105               2 1 500 502 503 0=1
Convolution              Conv_106                 1 1 503 507 0=16 1=1 5=1 6=2304 9=6 -23310=2,1.666667e-01,5.000000e-01
Split                    splitncnn_8              1 2 507 507_splitncnn_0 507_splitncnn_1
Crop                     Slice_115                1 1 507_splitncnn_1 514 -23309=1,0 -23310=1,32 -23311=1,1
Crop                     Slice_117                1 1 507_splitncnn_0 516 -23309=1,32 -23310=1,56 -23311=1,1
Permute                  Transpose_118            1 1 516 517 0=1
Convolution              Conv_119                 1 1 514 519 0=144 1=1 5=1 6=2304 9=4
Convolution              Conv_121                 1 1 517 521 0=144 1=1 5=1 6=2304 9=4
BinaryOp                 Mul_123                  2 1 497_splitncnn_0 521 522 0=2
BinaryOp                 Mul_124                  2 1 522 519 523 0=2
Convolution              Conv_125                 1 1 523 919 0=32 1=1 5=1 6=4608
Split                    splitncnn_9              1 2 919 919_splitncnn_0 919_splitncnn_1
Convolution              Conv_126                 1 1 919_splitncnn_1 529 0=192 1=1 5=1 6=6144 9=6 -23310=2,1.666667e-01,5.000000e-01
ConvolutionDepthWise     Conv_129                 1 1 529 533 0=192 1=3 4=1 5=1 6=1728 7=192 9=6 -23310=2,1.666667e-01,5.000000e-01
Split                    splitncnn_10             1 3 533 533_splitncnn_0 533_splitncnn_1 533_splitncnn_2
Pooling                  AveragePool_134          1 1 533_splitncnn_2 536 0=1 1=24 11=1 2=24 12=1 5=1
Pooling                  AveragePool_135          1 1 533_splitncnn_1 537 0=1 1=1 11=32 12=32 5=1
Permute                  Transpose_136            1 1 537 538 0=1
Concat                   Concat_137               2 1 536 538 539 0=1
Convolution              Conv_138                 1 1 539 543 0=16 1=1 5=1 6=3072 9=6 -23310=2,1.666667e-01,5.000000e-01
Split                    splitncnn_11             1 2 543 543_splitncnn_0 543_splitncnn_1
Crop                     Slice_147                1 1 543_splitncnn_1 550 -23309=1,0 -23310=1,32 -23311=1,1
Crop                     Slice_149                1 1 543_splitncnn_0 552 -23309=1,32 -23310=1,56 -23311=1,1
Permute                  Transpose_150            1 1 552 553 0=1
Convolution              Conv_151                 1 1 550 555 0=192 1=1 5=1 6=3072 9=4
Convolution              Conv_153                 1 1 553 557 0=192 1=1 5=1 6=3072 9=4
BinaryOp                 Mul_155                  2 1 533_splitncnn_0 557 558 0=2
BinaryOp                 Mul_156                  2 1 558 555 559 0=2
Convolution              Conv_157                 1 1 559 931 0=32 1=1 5=1 6=6144
BinaryOp                 Add_158                  2 1 931 919_splitncnn_0 562
Split                    splitncnn_12             1 2 562 562_splitncnn_0 562_splitncnn_1
Convolution              Conv_159                 1 1 562_splitncnn_1 566 0=192 1=1 5=1 6=6144 9=6 -23310=2,1.666667e-01,5.000000e-01
ConvolutionDepthWise     Conv_162                 1 1 566 570 0=192 1=3 4=1 5=1 6=1728 7=192 9=6 -23310=2,1.666667e-01,5.000000e-01
Split                    splitncnn_13             1 3 570 570_splitncnn_0 570_splitncnn_1 570_splitncnn_2
Pooling                  AveragePool_167          1 1 570_splitncnn_2 573 0=1 1=24 11=1 2=24 12=1 5=1
Pooling                  AveragePool_168          1 1 570_splitncnn_1 574 0=1 1=1 11=32 12=32 5=1
Permute                  Transpose_169            1 1 574 575 0=1
Concat                   Concat_170               2 1 573 575 576 0=1
Convolution              Conv_171                 1 1 576 580 0=16 1=1 5=1 6=3072 9=6 -23310=2,1.666667e-01,5.000000e-01
Split                    splitncnn_14             1 2 580 580_splitncnn_0 580_splitncnn_1
Crop                     Slice_180                1 1 580_splitncnn_1 587 -23309=1,0 -23310=1,32 -23311=1,1
Crop                     Slice_182                1 1 580_splitncnn_0 589 -23309=1,32 -23310=1,56 -23311=1,1
Permute                  Transpose_183            1 1 589 590 0=1
Convolution              Conv_184                 1 1 587 592 0=192 1=1 5=1 6=3072 9=4
Convolution              Conv_186                 1 1 590 594 0=192 1=1 5=1 6=3072 9=4
BinaryOp                 Mul_188                  2 1 570_splitncnn_0 594 595 0=2
BinaryOp                 Mul_189                  2 1 595 592 596 0=2
Convolution              Conv_190                 1 1 596 943 0=32 1=1 5=1 6=6144
BinaryOp                 Add_191                  2 1 943 562_splitncnn_0 599
Convolution              Conv_192                 1 1 599 603 0=192 1=1 5=1 6=6144 9=6 -23310=2,1.666667e-01,5.000000e-01
ConvolutionDepthWise     Conv_195                 1 1 603 607 0=192 1=3 3=2 4=1 5=1 6=1728 7=192 9=6 -23310=2,1.666667e-01,5.000000e-01
Split                    splitncnn_15             1 3 607 607_splitncnn_0 607_splitncnn_1 607_splitncnn_2
Pooling                  AveragePool_200          1 1 607_splitncnn_2 610 0=1 1=12 11=1 2=12 12=1 5=1
Pooling                  AveragePool_201          1 1 607_splitncnn_1 611 0=1 1=1 11=16 12=16 5=1
Permute                  Transpose_202            1 1 611 612 0=1
Concat                   Concat_203               2 1 610 612 613 0=1
Convolution              Conv_204                 1 1 613 617 0=16 1=1 5=1 6=3072 9=6 -23310=2,1.666667e-01,5.000000e-01
Split                    splitncnn_16             1 2 617 617_splitncnn_0 617_splitncnn_1
Crop                     Slice_213                1 1 617_splitncnn_1 624 -23309=1,0 -23310=1,16 -23311=1,1
Crop                     Slice_215                1 1 617_splitncnn_0 626 -23309=1,16 -23310=1,28 -23311=1,1
Permute                  Transpose_216            1 1 626 627 0=1
Convolution              Conv_217                 1 1 624 629 0=192 1=1 5=1 6=3072 9=4
Convolution              Conv_219                 1 1 627 631 0=192 1=1 5=1 6=3072 9=4
BinaryOp                 Mul_221                  2 1 607_splitncnn_0 631 632 0=2
BinaryOp                 Mul_222                  2 1 632 629 633 0=2
Convolution              Conv_223                 1 1 633 955 0=64 1=1 5=1 6=12288
Split                    splitncnn_17             1 2 955 955_splitncnn_0 955_splitncnn_1
Convolution              Conv_224                 1 1 955_splitncnn_1 639 0=384 1=1 5=1 6=24576 9=6 -23310=2,1.666667e-01,5.000000e-01
ConvolutionDepthWise     Conv_227                 1 1 639 643 0=384 1=3 4=1 5=1 6=3456 7=384 9=6 -23310=2,1.666667e-01,5.000000e-01
Split                    splitncnn_18             1 3 643 643_splitncnn_0 643_splitncnn_1 643_splitncnn_2
Pooling                  AveragePool_232          1 1 643_splitncnn_2 646 0=1 1=12 11=1 2=12 12=1 5=1
Pooling                  AveragePool_233          1 1 643_splitncnn_1 647 0=1 1=1 11=16 12=16 5=1
Permute                  Transpose_234            1 1 647 648 0=1
Concat                   Concat_235               2 1 646 648 649 0=1
Convolution              Conv_236                 1 1 649 653 0=24 1=1 5=1 6=9216 9=6 -23310=2,1.666667e-01,5.000000e-01
Split                    splitncnn_19             1 2 653 653_splitncnn_0 653_splitncnn_1
Crop                     Slice_245                1 1 653_splitncnn_1 660 -23309=1,0 -23310=1,16 -23311=1,1
Crop                     Slice_247                1 1 653_splitncnn_0 662 -23309=1,16 -23310=1,28 -23311=1,1
Permute                  Transpose_248            1 1 662 663 0=1
Convolution              Conv_249                 1 1 660 665 0=384 1=1 5=1 6=9216 9=4
Convolution              Conv_251                 1 1 663 667 0=384 1=1 5=1 6=9216 9=4
BinaryOp                 Mul_253                  2 1 643_splitncnn_0 667 668 0=2
BinaryOp                 Mul_254                  2 1 668 665 669 0=2
Convolution              Conv_255                 1 1 669 967 0=64 1=1 5=1 6=24576
BinaryOp                 Add_256                  2 1 967 955_splitncnn_0 672
Split                    splitncnn_20             1 2 672 672_splitncnn_0 672_splitncnn_1
Convolution              Conv_257                 1 1 672_splitncnn_1 676 0=384 1=1 5=1 6=24576 9=6 -23310=2,1.666667e-01,5.000000e-01
ConvolutionDepthWise     Conv_260                 1 1 676 680 0=384 1=3 4=1 5=1 6=3456 7=384 9=6 -23310=2,1.666667e-01,5.000000e-01
Split                    splitncnn_21             1 3 680 680_splitncnn_0 680_splitncnn_1 680_splitncnn_2
Pooling                  AveragePool_265          1 1 680_splitncnn_2 683 0=1 1=12 11=1 2=12 12=1 5=1
Pooling                  AveragePool_266          1 1 680_splitncnn_1 684 0=1 1=1 11=16 12=16 5=1
Permute                  Transpose_267            1 1 684 685 0=1
Concat                   Concat_268               2 1 683 685 686 0=1
Convolution              Conv_269                 1 1 686 690 0=24 1=1 5=1 6=9216 9=6 -23310=2,1.666667e-01,5.000000e-01
Split                    splitncnn_22             1 2 690 690_splitncnn_0 690_splitncnn_1
Crop                     Slice_278                1 1 690_splitncnn_1 697 -23309=1,0 -23310=1,16 -23311=1,1
Crop                     Slice_280                1 1 690_splitncnn_0 699 -23309=1,16 -23310=1,28 -23311=1,1
Permute                  Transpose_281            1 1 699 700 0=1
Convolution              Conv_282                 1 1 697 702 0=384 1=1 5=1 6=9216 9=4
Convolution              Conv_284                 1 1 700 704 0=384 1=1 5=1 6=9216 9=4
BinaryOp                 Mul_286                  2 1 680_splitncnn_0 704 705 0=2
BinaryOp                 Mul_287                  2 1 705 702 706 0=2
Convolution              Conv_288                 1 1 706 979 0=64 1=1 5=1 6=24576
BinaryOp                 Add_289                  2 1 979 672_splitncnn_0 709
Split                    splitncnn_23             1 2 709 709_splitncnn_0 709_splitncnn_1
Convolution              Conv_290                 1 1 709_splitncnn_1 713 0=384 1=1 5=1 6=24576 9=6 -23310=2,1.666667e-01,5.000000e-01
ConvolutionDepthWise     Conv_293                 1 1 713 717 0=384 1=3 4=1 5=1 6=3456 7=384 9=6 -23310=2,1.666667e-01,5.000000e-01
Split                    splitncnn_24             1 3 717 717_splitncnn_0 717_splitncnn_1 717_splitncnn_2
Pooling                  AveragePool_298          1 1 717_splitncnn_2 720 0=1 1=12 11=1 2=12 12=1 5=1
Pooling                  AveragePool_299          1 1 717_splitncnn_1 721 0=1 1=1 11=16 12=16 5=1
Permute                  Transpose_300            1 1 721 722 0=1
Concat                   Concat_301               2 1 720 722 723 0=1
Convolution              Conv_302                 1 1 723 727 0=24 1=1 5=1 6=9216 9=6 -23310=2,1.666667e-01,5.000000e-01
Split                    splitncnn_25             1 2 727 727_splitncnn_0 727_splitncnn_1
Crop                     Slice_311                1 1 727_splitncnn_1 734 -23309=1,0 -23310=1,16 -23311=1,1
Crop                     Slice_313                1 1 727_splitncnn_0 736 -23309=1,16 -23310=1,28 -23311=1,1
Permute                  Transpose_314            1 1 736 737 0=1
Convolution              Conv_315                 1 1 734 739 0=384 1=1 5=1 6=9216 9=4
Convolution              Conv_317                 1 1 737 741 0=384 1=1 5=1 6=9216 9=4
BinaryOp                 Mul_319                  2 1 717_splitncnn_0 741 742 0=2
BinaryOp                 Mul_320                  2 1 742 739 743 0=2
Convolution              Conv_321                 1 1 743 991 0=64 1=1 5=1 6=24576
BinaryOp                 Add_322                  2 1 991 709_splitncnn_0 746
Convolution              Conv_323                 1 1 746 750 0=384 1=1 5=1 6=24576 9=6 -23310=2,1.666667e-01,5.000000e-01
ConvolutionDepthWise     Conv_326                 1 1 750 754 0=384 1=3 4=1 5=1 6=3456 7=384 9=6 -23310=2,1.666667e-01,5.000000e-01
Split                    splitncnn_26             1 3 754 754_splitncnn_0 754_splitncnn_1 754_splitncnn_2
Pooling                  AveragePool_331          1 1 754_splitncnn_2 757 0=1 1=12 11=1 2=12 12=1 5=1
Pooling                  AveragePool_332          1 1 754_splitncnn_1 758 0=1 1=1 11=16 12=16 5=1
Permute                  Transpose_333            1 1 758 759 0=1
Concat                   Concat_334               2 1 757 759 760 0=1
Convolution              Conv_335                 1 1 760 764 0=24 1=1 5=1 6=9216 9=6 -23310=2,1.666667e-01,5.000000e-01
Split                    splitncnn_27             1 2 764 764_splitncnn_0 764_splitncnn_1
Crop                     Slice_344                1 1 764_splitncnn_1 771 -23309=1,0 -23310=1,16 -23311=1,1
Crop                     Slice_346                1 1 764_splitncnn_0 773 -23309=1,16 -23310=1,28 -23311=1,1
Permute                  Transpose_347            1 1 773 774 0=1
Convolution              Conv_348                 1 1 771 776 0=384 1=1 5=1 6=9216 9=4
Convolution              Conv_350                 1 1 774 778 0=384 1=1 5=1 6=9216 9=4
BinaryOp                 Mul_352                  2 1 754_splitncnn_0 778 779 0=2
BinaryOp                 Mul_353                  2 1 779 776 780 0=2
Convolution              Conv_354                 1 1 780 1003 0=96 1=1 5=1 6=36864
Split                    splitncnn_28             1 2 1003 1003_splitncnn_0 1003_splitncnn_1
Convolution              Conv_355                 1 1 1003_splitncnn_1 786 0=576 1=1 5=1 6=55296 9=6 -23310=2,1.666667e-01,5.000000e-01
ConvolutionDepthWise     Conv_358                 1 1 786 790 0=576 1=3 4=1 5=1 6=5184 7=576 9=6 -23310=2,1.666667e-01,5.000000e-01
Split                    splitncnn_29             1 3 790 790_splitncnn_0 790_splitncnn_1 790_splitncnn_2
Pooling                  AveragePool_363          1 1 790_splitncnn_2 793 0=1 1=12 11=1 2=12 12=1 5=1
Pooling                  AveragePool_364          1 1 790_splitncnn_1 794 0=1 1=1 11=16 12=16 5=1
Permute                  Transpose_365            1 1 794 795 0=1
Concat                   Concat_366               2 1 793 795 796 0=1
Convolution              Conv_367                 1 1 796 800 0=40 1=1 5=1 6=23040 9=6 -23310=2,1.666667e-01,5.000000e-01
Split                    splitncnn_30             1 2 800 800_splitncnn_0 800_splitncnn_1
Crop                     Slice_376                1 1 800_splitncnn_1 807 -23309=1,0 -23310=1,16 -23311=1,1
Crop                     Slice_378                1 1 800_splitncnn_0 809 -23309=1,16 -23310=1,28 -23311=1,1
Permute                  Transpose_379            1 1 809 810 0=1
Convolution              Conv_380                 1 1 807 812 0=576 1=1 5=1 6=23040 9=4
Convolution              Conv_382                 1 1 810 814 0=576 1=1 5=1 6=23040 9=4
BinaryOp                 Mul_384                  2 1 790_splitncnn_0 814 815 0=2
BinaryOp                 Mul_385                  2 1 815 812 816 0=2
Convolution              Conv_386                 1 1 816 1015 0=96 1=1 5=1 6=55296
BinaryOp                 Add_387                  2 1 1015 1003_splitncnn_0 819
Split                    splitncnn_31             1 2 819 819_splitncnn_0 819_splitncnn_1
Convolution              Conv_388                 1 1 819_splitncnn_1 823 0=576 1=1 5=1 6=55296 9=6 -23310=2,1.666667e-01,5.000000e-01
ConvolutionDepthWise     Conv_391                 1 1 823 827 0=576 1=3 4=1 5=1 6=5184 7=576 9=6 -23310=2,1.666667e-01,5.000000e-01
Split                    splitncnn_32             1 3 827 827_splitncnn_0 827_splitncnn_1 827_splitncnn_2
Pooling                  AveragePool_396          1 1 827_splitncnn_2 830 0=1 1=12 11=1 2=12 12=1 5=1
Pooling                  AveragePool_397          1 1 827_splitncnn_1 831 0=1 1=1 11=16 12=16 5=1
Permute                  Transpose_398            1 1 831 832 0=1
Concat                   Concat_399               2 1 830 832 833 0=1
Convolution              Conv_400                 1 1 833 837 0=40 1=1 5=1 6=23040 9=6 -23310=2,1.666667e-01,5.000000e-01
Split                    splitncnn_33             1 2 837 837_splitncnn_0 837_splitncnn_1
Crop                     Slice_409                1 1 837_splitncnn_1 844 -23309=1,0 -23310=1,16 -23311=1,1
Crop                     Slice_411                1 1 837_splitncnn_0 846 -23309=1,16 -23310=1,28 -23311=1,1
Permute                  Transpose_412            1 1 846 847 0=1
Convolution              Conv_413                 1 1 844 849 0=576 1=1 5=1 6=23040 9=4
Convolution              Conv_415                 1 1 847 851 0=576 1=1 5=1 6=23040 9=4
BinaryOp                 Mul_417                  2 1 827_splitncnn_0 851 852 0=2
BinaryOp                 Mul_418                  2 1 852 849 853 0=2
Convolution              Conv_419                 1 1 853 1027 0=96 1=1 5=1 6=55296
BinaryOp                 Add_420                  2 1 1027 819_splitncnn_0 856
Convolution              Conv_421                 1 1 856 858 0=17 1=1 5=1 6=1632 9=1
Reshape                  Reshape_430              1 1 858 866 0=-1 1=17
Permute                  Transpose_431            1 1 866 867 0=1
Split                    splitncnn_34             1 2 867 867_splitncnn_0 867_splitncnn_1
Convolution1D            Conv_432                 1 1 867_splitncnn_1 869 0=256 1=1 5=1 6=49152 9=1
Permute                  Transpose_434            1 1 869 output1 0=1
Convolution1D            Conv_435                 1 1 867_splitncnn_0 872 0=192 1=1 5=1 6=36864 9=1
Permute                  Transpose_437            1 1 872 output0 0=1
